midterm_project/project17/best_model_tsla.pth (torch, 40226 bytes, 15 tensors)

conv1d.weight f4 [16, 4, 1]
00000000: 735b 7abe e6a7 4ebf 98ee 53be c628 89be
00000010: ec6e 1ebf 9143 6ebf cd9c 0ebf 7e7e bdbe
00000020: d467 54bf 170e 4fbe 8816 d1be a930 24be
00000030: fc9f f4bf ee14 89bf 4548 d5bf ba95 90bf
00000040: 0be9 e3bf b29e acbf 9608 a9bf b8fc c7bf
00000050: 22ef e7bf 4e1d 01c0 544e eebf 1dbe 91bf
00000060: 269c c1bf c2ec a1bf 9d91 b4bf bb14 dbbf
00000070: a02e 9bbf 418e cdbf 4c82 bdbf 5216 aebf
00000080: bd52 e8bf a99f e2bf 6927 a6bf bd29 dbbf
00000090: 3b9f ffbf e9ea d0bf e1e4 8abf 7225 d9bf
000000a0: a0cb 4fbf 2d4e 11bf e189 1abf a0a6 8abf
000000b0: d9df 9cbf 95b6 dfbf f71d dabf 6a49 81bf
000000c0: 0ea6 9ebf f728 a5bf a6cb e3bf bc46 f3bf
000000d0: e4bc babe d331 53bf 70c6 debe 6d23 1bbf
000000e0: 58e6 ecbf bf5a a3bf ed14 88bf e052 e8bf
000000f0: 7acf bebf 0070 e1bf 5631 e4bf bffe 9cbf
-0.24448948 -0.8072494 -0.20696485 -0.2678892 -0.61888003 -0.9307185 -0.5570801 -0.37010568
-0.8297093 -0.20220219 -0.40837502 -0.16034187 -1.9111323 -1.0709512 -1.666268 -1.1295693
-1.7805494 -1.348593 -1.3205745 -1.5623999 -1.8119853 -2.0174136 -1.8617654 -1.1386143
-1.5125778 -1.2650378 -1.4106938 -1.7115701 -1.2123604 -1.6059037 -1.4805388 -1.3600562
-1.815025 -1.7704974 -1.2980777 -1.7122113 -1.9970468 -1.6321689 -1.0851098 -1.6964552
-0.8117008 -0.5675991 -0.60366637 -1.08321 -1.2255813 -1.7477595 -1.7040395 -1.0100529
-1.2394426 -1.2903126 -1.7796524 -1.9005961 -0.36472237 -0.824979 -0.4351077 -0.6060093
-1.8507795 -1.2762069 -1.0631386 -1.8150291 -1.4907067 -1.7612305 -1.7827556 -1.2265242

conv1d.bias f4 [16]
00000000: 02f2 aabf 4747 82bf 40f2 2bbf 3e27 6ebf
00000010: 0358 a7be 7fb3 143f e2f7 6abe c4ee 48bf
00000020: bdc5 313e c7b2 c5bd 9e26 40bf e27a 29bf
00000030: f8e3 72bd 77d7 aabf 0c1d d4be 6904 a03d
-1.3355105 -1.0178002 -0.6716652 -0.9302863 -0.32684335 0.5808639 -0.22946122 -0.7848933
0.17360587 -0.0965324 -0.75058925 -0.6620313 -0.05929944 -1.3347005 -0.4142841 0.07813341

bilstm.weight_ih_l0 f4 [64, 16]
00000000: 74ae 3e3d 07d5 d03e e9a4 973e 3527 2cbe
00000010: 0398 4cbf 007f 9fbf fdf7 fbbe af22 9fbe
00000020: 2943 a6bf 9286 99bf a266 a53e e577 51bf
00000030: 6013 47bf e9fa d83e 46c3 e9be 485c 21bf
00000040: 9163 e2be d461 34bf 3ceb 1fbf aa9e e0be
00000050: a122 ffbe a34d 83be 58c7 b6be 450d 88be
00000060: 6e94 cbbe 0e6c c1be dbee c0be ed93 efbe
00000070: 0f39 34bf 6fad e8be a291 26bf 959d ecbe
00000080: e205 37bf 819e 45bf d398 f6be a2de f0be
00000090: f7dd 75be 6f2b e9be dc6a 07bf d6ee afbe
000000a0: a6ec 30bf 5755 7abf 43eb 98be 69e5 cdbe
000000b0: 2e5e 40bf 1979 fbbe 5621 f9be 1fad c1be
000000c0: ddb7 96be 8c9e f9be e225 23bf 0839 7ebe
000000d0: e1dd d0be 61e1 5abe 85cc 0abf 2383 e8be
000000e0: ff44 b8be 85de e2bd 8e5f 1ebf 6d34 40bd
000000f0: 1ee5 a4be 1081 ebbe 4f64 63be eef6 95be
00000100: 6214 a33e 1f22 f03d f1f0 aabd 32c5 e7bd
00000110: 3913 12bf da6e a2bf 7799 06bf b64b a0be
00000120: 07fe 1abf 7220 19bf f61d b23e 2270 16bf
00000130: 985d 59bf 7d56 6f3e a09d b6be 83d7 3cbf
00000140: 3f67 8ebe 6594 18bf ea58 dcbe ecba d2be
00000150: e647 60bf 124f 37bf 558c d3be 83d6 0cbf
00000160: a525 1fbf d40b 12bf 926e 1fbf b3bb 37bf
00000170: 3ba8 3abf 96e6 8cbe 34ec 23bf 6dca 27bf
00000180: b2e4 0ebf 83cb 2fbf abf8 babe bb91 23be
00000190: ecfc c6be 77fa 06bf acd1 b0be f0c8 6abe
000001a0: 685b f9be 78a2 f7be 69fa cdbe 2903 5fbe
000001b0: dae4 91be d1de f7be e51d 9ebe 3f50 d5be
000001c0: 98f4 983e 25e7 a03c fcca 59ba ccd6 9bbe
000001d0: b50a 5dbf 0d74 5dbf 9289 45bf 8ef6 05bf
000001e0: ded8 3fbf 151a b8bf 3299 46be b02d ffbe
000001f0: 7ddd 9cbf ffd9 963d 7420 64bf 5d4b 44bf
00000200: 92a7 2ebf 83b8 40bf e119 01bf cf88 12bf
00000210: ea13 9abe 2dbf 8ebe 7392 abbe 8993 21bf
00000220: e5ec 44be b0ec 48be e4e7 16bf b8b5 23bf
00000230: 86bf 96be c9d7 3fbf 70fc d4be 4099 9cbe
00000240: ab5b 62be 8eb0 8abe 80c3 6bbe 8910 cbbe
00000250: 9b39 32be 387d 17bf 2540 1bbf 6d24 bbbe
00000260: e0cb 15bf d7cd 1fbf 93d9 03bf 4d94 48be
00000270: fb6c 1abf 7f3e 31bf aa56 0bbf e8e0 8bbe
00000280: db38 c0be 8b26 80be ef91 e8be a268 0abf
00000290: e73c 21bf 552c 00bf c2b5 8ebe 7af5 45be
000002a0: 283b 52bf 5364 fcbe 52cd ddbe 2efe 97be
000002b0: 61ff 19bf 4953 4bbe b9b4 ddbe 797a 38bf
000002c0: 630a 73bd 63af 0f3e 54d9 a23e ed72 1ebf
000002d0: a294 53bf 5c07 73bf ab3e 4fbf a6ac fabe
000002e0: e3c9 8abf 3214 89bf b211 7a3e 4c05 2abf
000002f0: 94b4 4abf f3bc 87bd 0ad5 6abf 25c7 11bf
00000300: ab58 9dbe 1272 a6be f177 14be e52a edbe
00000310: 5f4b c1be 1871 09bf d685 c7be 00e0 95be
00000320: 8705 04bf b59a 08bf 9f83 ccbd aa66 bcbd
00000330: 9e52 22bf 600f b3be a194 2cbf b28d cabe
00000340: 1b23 b83e 07f4 f83c 1766 903e daf1 1fbe
00000350: 9b34 74bf b68f aebf d7ce 0fbf 27b1 36bf
00000360: 167d 87bf 3b15 9fbf 6d04 c93e 65b4 0cbf
00000370: d733 8bbf 06c2 bb3e d6c8 d1be 64c4 fcbe
00000380: e2cb 26be f74d c9be 5363 a1be 0798 a6be
00000390: 232b b83c 8f0e 28be efad 063e 4978 1bbe
000003a0: e907 6abe aa65 5ebf a4f2 e4be 418c 07be
000003b0: bf0b 87be e42d a2be 1852 9cbe e3a8 86ba
000003c0: 0597 203e c7c2 033e 1208 873d fa0d 5c3e
000003d0: 0d63 e4bc da6f 45be 1427 27be 8eab 343d
000003e0: d6dd 6f3e cb78 393e 56de 143e b7d9 9a3d
000003f0: 7c9e 883e fae7 e13d 795d 2abb 7c0e fc3d
0.04655309 0.40787527 0.29618004 -0.16811831 -0.7991945 -1.2460632 -0.49212638 -0.3108115
-1.2989246 -1.1994193 0.32304865 -0.8182357 -0.7776394 0.4237893 -0.45656794 -0.63031435
-0.44216588 -0.70461774 -0.62468314 -0.4387105 -0.49831107 -0.2564517 -0.35698962 -0.26572624
-0.3976168 -0.37777752 -0.37682232 -0.46792546 -0.70399565 -0.4544482 -0.6506597 -0.46213976
-0.7149335 -0.7719498 -0.4816347 -0.47044855 -0.24010454 -0.4554095 -0.5289743 -0.34361905
-0.69111097 -0.9778647 -0.2986699 -0.4021409 -0.75143707 -0.49115828 -0.48658246 -0.37827393
-0.29437152 -0.48753774 -0.6372968 -0.24826443 -0.4079428 -0.21375038 -0.5421832 -0.4541255
-0.3599014 -0.110775985 -0.61864555 -0.046924997 -0.32206053 -0.45996904 -0.22206233 -0.29289955
0.31851488 0.11725258 -0.08346737 -0.11316909 -0.5706058 -1.2690079 -0.5257792 -0.31307763
-0.60543865 -0.5981513 0.34788483 -0.5876485 -0.8490844 0.23372836 -0.35667133 -0.73766345
-0.27813146 -0.5960143 -0.43036586 -0.41158235 -0.8760971 -0.71605027 -0.41318002 -0.5501482
-0.62166816 -0.570493 -0.6227809 -0.7177078 -0.7291295 -0.27519673 -0.6403229 -0.6554325
-0.5581771 -0.6866991 -0.36517844 -0.1597356 -0.3886484 -0.5272593 -0.34534967 -0.22928214
-0.4870255 -0.4836614 -0.4023011 -0.21778549 -0.28494912 -0.48412183 -0.30882183 -0.41662785
0.2987411 0.019641468 -0.000830814 -0.30437315 -0.8634446 -0.86505204 -0.7716304 -0.5232934
-0.7494029 -1.438296 -0.19394377 -0.49839544 -1.2255093 0.07365798 -0.8911202 -0.76677495
-0.6822444 -0.7528154 -0.50430113 -0.57240003 -0.30093318 -0.2788023 -0.3351017 -0.63115746
-0.19230993 -0.19621539 -0.58947587 -0.63949156 -0.29442996 -0.74938637 -0.41598845 -0.3058567
-0.22105281 -0.27087826 -0.23023796 -0.39661053 -0.17404787 -0.59175444 -0.6064475 -0.36551228
-0.58514214 -0.6242346 -0.51503867 -0.19587822 -0.6032254 -0.69235986 -0.54429114 -0.27320027
-0.37543377 -0.25029406 -0.45423838 -0.54065907 -0.62983555 -0.50067645 -0.27873045 -0.19331923
-0.82121515 -0.4929529 -0.4332071 -0.2968611 -0.601553 -0.1985599 -0.43301943 -0.7206188
-0.059336077 0.14031748 0.31806433 -0.6189411 -0.8264867 -0.94933105 -0.80955 -0.48959845
-1.0842861 -1.0709288 0.24420813 -0.6641433 -0.7918179 -0.06627836 -0.9173132 -0.56944495
-0.3073171 -0.32508904 -0.14498879 -0.46321788 -0.37752816 -0.5368819 -0.38969296 -0.2927246
-0.51570934 -0.53361064 -0.09986042 -0.09199269 -0.63407314 -0.34972668 -0.6741429 -0.3956123
0.35964283 0.030389799 0.28202888 -0.15619603 -0.9539277 -1.3637607 -0.5617499 -0.71364063
-1.0585048 -1.2428354 0.3926119 -0.5496276 -1.0875195 0.36671466 -0.40973538 -0.49368584
-0.16288713 -0.39317295 -0.3152109 -0.32537863 0.022481507 -0.16411804 0.13152288 -0.15182604
-0.2285458 -0.8687388 -0.4471637 -0.13237096 -0.2637615 -0.31675637 -0.30531383 -0.0010273721
0.1568261 0.1286727 0.06593336 0.21489707 -0.027879262 -0.19280949 -0.16323501 0.04410892
0.23424467 0.18112485 0.1453794 0.07561057 0.26683414 0.11030574 -0.0025995655 0.1230745

bilstm.weight_hh_l0 f4 [64, 16]
00000000: f0b4 3bbd c400 4cbe 0c96 173e ac9b 923d
00000010: b4ac 2cbe b8ee 243e b028 bfbd 5ce2 08be
00000020: 5ae3 5f3e a06f 28bd fc8c 1d3e 3c7c d33d
00000030: b89a 813d e61d 653e ac0d cbbd 58d1 4e3d
00000040: 1810 f23d 186e febd 2c4c e8bd e8bb 293e
00000050: f8f6 4dbd f4a9 ccbd 600d 58bd c8ca 60bd
00000060: 2c2a fa3d 8603 09be 88af a5bd ce9c 78be
00000070: e8a7 49bd 7080 db3d f6eb 56be b00c 80bd
00000080: 30cf 713d 64c8 9cbd 40dc cc3d 9a8c 793e
00000090: 1827 113d 108b 97bc 88d4 dd3d f40c d3bd
000000a0: 62a0 713e 9cde 9d3d 1c94 18be 88a2 b1bd
000000b0: e8b7 763d 1cdd 383e 4e30 2cbe 60f6 573e
000000c0: 087f 633e fe81 793e 1897 6fbd d09e 0abe
000000d0: b8dc 03bd c8f1 4fbd 3c2e b43d c48b 743e
000000e0: 74fd e63d 786b 4ebe f4ff 1cbe d09a 1d3d
000000f0: 02e8 133e c8b0 bf3d bc82 a83d 1e19 05be
00000100: e0c5 74bc ac49 353e bc4f 8fbd 8e84 0dbe
00000110: 34f8 cf3d 34ea a63d 5a69 0dbe 7cc6 9f3d
00000120: 36a9 0b3e d046 d9bc b8ea 5ebd 50fb b63d
00000130: 7e88 1abe 66dc 0dbe 04c3 12be 9e38 733e
00000140: 4085 81bc 60d2 4abc d460 163e 5c69 a93d
00000150: aafd 0f3e 88a5 493d d23e 05be b8e7 c8bd
00000160: 02f3 02be f816 13be 3ca4 e13d 3492 113e
00000170: 04ad 1dbe e089 223c 2085 9b3c fa7e 563e
00000180: 48ed 35be c43f 6ebe 7c44 2cbe e8e4 13be
00000190: 208e 95bc c0f7 77bd ecfa 14be 8c70 ccbd
000001a0: 1cbb 263e 8435 643e 3a29 53be 1881 e9bd
000001b0: 50cb b23c 2e04 1fbe fac6 3abe 2445 593e
000001c0: c42c c9bd b658 273e a031 e73d 00e2 e7ba
000001d0: 7443 a73d 8a64 48be 00df a6bc c0dd 41bc
000001e0: da8c 2ebe 466b 033e fe62 4dbe a85a 623d
000001f0: 56ce 0dbe c89b fbbd d04c 5ebd 0a2c 01be
00000200: 9e16 5ebe 007f e0ba a0dd 9f3d 043f de3d
00000210: 9044 393e 40ea 18bc 08a5 403e 8031 fabd
00000220: 4c1e cebd f86a 57bd 4630 29be 8487 223e
00000230: 2445 8f3d d082 b4bc 546a 98bd ccd5 60be
00000240: 9202 4dbe c8f9 4e3e 084c 463e 3432 b2bd
00000250: 6409 5fbe 72b4 6b3e ecf0 c33d 1254 61be
00000260: 5800 24bd 32d7 1abe 0016 d9ba 8ce2 e5bd
00000270: 5420 a33d 6e7b 1a3e 5096 03be 7011 133e
00000280: 40a4 5dbe 3097 ea3c dab0 5b3e 86b0 1f3e
00000290: b0f7 cbbc 6e88 69be 785e 14bd a05a 643e
000002a0: 60ea 53be b06a 103d 5c6c 8a3d d045 103e
000002b0: 8ecc 273e 0021 ac3a 267c 053e 86bb 043e
000002c0: 1aa8 293e 08b3 b0bd a0da 2a3c 4010 8dbd
000002d0: e42f ddbd 72ff 7fbe 3041 fdbc d22b 083e
000002e0: 5cb3 7a3e 607d 7b3d 009a 093d d481 b83d
000002f0: 50a9 14bd 7065 123d a8a3 dfbd ac31 753e
00000300: 3890 553d ba6d 773e a89f 6b3d f87a a63d
00000310: ec5c 54be f2f5 7cbe 08ed fd3d d859 c43d
00000320: 10c8 97bd ec6f a73d 98ee 7dbd e05b aa3d
00000330: 68e1 e0bd 701a 71bd a2fd 773e 24bc 25be
00000340: 86db 293e cae6 7b3e 2c02 bd3d 60a0 fb3c
00000350: 7867 2f3d 0c6e 9ebd 8821 4cbe 38db 41bd
00000360: b02c b9bc fc29 913d 7894 7b3d 10ee 173d
00000370: 40c1 06bd 38fe 9abd 3858 3fbd b066 e6bd
00000380: 0c3c 67be 10f0 28be 0015 bd3a 440e 263e
00000390: 6094 3a3d a817 6fbd fa1a 113e 600d 733c
000003a0: 10be a1bc ce7a 7cbe feab 74be 0afd 0cbe
000003b0: 0c59 893d 30e8 97bc de88 72be 18b1 273e
000003c0: c078 8fbd 4417 bd3d d87a 043d 0058 673c
000003d0: 484d 733e 7c27 08be 46db 7f3e dcb4 363e
000003e0: 80c6 6cbc 4c89 503e b85f 2bbe 8215 7a3e
000003f0: 3039 3fbd 2826 9dbd d001 c7bc d8ce ff3d
-0.045826852 -0.19922167 0.14803332 0.07158598 -0.16862756 0.16106689 -0.093339324 -0.13367599
0.21864071 -0.04112208 0.15385813 0.1032643 0.063283384 0.22374687 -0.09914717 0.050492615
0.11819476 -0.124233425 -0.11342654 0.16575587 -0.050284356 -0.099933535 -0.05274713 -0.054880887
0.12215075 -0.1338025 -0.080901206 -0.24278566 -0.049232394 0.10717857 -0.2098845 -0.0625242
0.05903548 -0.07655409 0.10002947 0.24370041 0.035437673 -0.018498927 0.10831553 -0.10305205
0.23596337 0.07708475 -0.14900249 -0.086735785 0.06023398 0.18053097 -0.16815302 0.21090078
0.22216427 0.24365994 -0.058493704 -0.13537145 -0.032192916 -0.05076769 0.08797881 0.23881441
0.11278811 -0.20158184 -0.15332013 0.03847772 0.14443973 0.0935989 0.082280606 -0.12997863
-0.014939755 0.17703885 -0.0699763 -0.13820097 0.10154763 0.081501395 -0.1380972 0.0780153
0.13638768 -0.026523024 -0.054423064 0.08934653 -0.1509113 -0.13853607 -0.14332205 0.23752066
-0.015810609 -0.012379259 0.14685374 0.08272049 0.14061609 0.04923013 -0.13012245 -0.09809822
-0.12788013 -0.1436423 0.11017653 0.14215928 -0.15398031 0.009920567 0.018984377 0.20946875
-0.17766297 -0.23266512 -0.16823 -0.1444279 -0.018256247 -0.060539007 -0.14548844 -0.09982404
0.16282314 0.2228604 -0.20621195 -0.11401576 0.021825463 -0.15528938 -0.18239966 0.21217781
-0.098229915 0.16342434 0.11288762 -0.0017691255 0.081671625 -0.19569603 -0.020370007 -0.0118326545
-0.17045918 0.1283389 -0.20057294 0.055262238 -0.13848242 -0.12285572 -0.054272473 -0.12614456
-0.21688315 -0.0017127693 0.078059435 0.10851863 0.18092561 -0.009333193 0.18812954 -0.122164726
-0.100643724 -0.052592248 -0.16522321 0.15872008 0.069956094 -0.022035033 -0.074421555 -0.21956557
-0.20020512 0.20212471 0.19364941 -0.08700982 -0.21780926 0.23018053 0.095674366 -0.22004727
-0.04003939 -0.15121153 -0.0016562343 -0.11224851 0.079651505 0.15086147 -0.12850308 0.1436212
-0.21644688 0.028636545 0.21454182 0.15594682 -0.02489838 -0.2280595 -0.036222905 0.22300196
-0.20694876 0.035257995 0.06758949 0.14089131 0.16386625 0.0013132393 0.1303564 0.1296216
0.16568032 -0.086278975 0.010428101 -0.06887865 -0.1080015 -0.24999788 -0.030914873 0.13297966
0.24482483 0.061398864 0.03359413 0.09009138 -0.03629428 0.03574127 -0.10919887 0.2394473
0.05213949 0.24162951 0.057525307 0.08128923 -0.20738572 -0.24703196 0.12398726 0.09587449
-0.07411206 0.08175644 -0.06199512 0.08318305 -0.10980493 -0.058863103 0.24217847 -0.16185051
0.16587648 0.24599758 0.0922893 0.030716121 0.042823285 -0.077358335 -0.19934666 -0.047328204
-0.022604316 0.07088086 0.061420888 0.03709227 -0.03289914 -0.0756802 -0.04671499 -0.11250055
-0.225815 -0.16497827 0.0014425814 0.1621638 0.045551658 -0.05837217 0.14170447 0.014834732
-0.01974395 -0.24656221 -0.23893735 -0.13768402 0.067064375 -0.018543333 -0.23685023 0.1637615
-0.07005453 0.09232953 0.032343715 0.014120102 0.23759949 -0.13296312 0.2498599 0.1784243
-0.014451623 0.20364875 -0.16735733 0.24422267 -0.046685398 -0.07673293 -0.024292856 0.12490624

bilstm.bias_ih_l0 f4 [64]
00000000: df3a 873e daa9 2bbf 817d dabe 79e5 02bf
00000010: 1830 04be b729 23bf 0210 27bf 4975 21be
00000020: f3b1 b3be b104 35bf 0902 d5be fdf5 b53d
00000030: d1d5 adbe 06b4 9abc 6a54 b1be e571 823e
00000040: c054 69be 9c1d 1a3e 20d6 e03d ec8e 8fbd
00000050: 1612 28be 00e0 f5bc 001c 72bc b0f1 233d
00000060: 2857 31be c4f4 ecbd c8ec 56bd f874 c33d
00000070: 90d1 7f3e a800 b7bd 08f1 583e 44d1 76be
00000080: e253 f83d 99ad 41be cc01 2cbe 6091 54be
00000090: 553d 5e3e f63a 8a3c 05c0 cebd 6cef 013e
000000a0: 34ec 893d 274a 22be a3d7 acbd 9a59 c43d
000000b0: 44e0 a5be 005e 3f3e 1c7d 1bbe 4d8f 37be
000000c0: 2cd8 a23e 537b 53bf b2e0 18bf d6ee 80be
000000d0: 9444 623a 80fb ebbe 5c84 26bf 5206 003e
000000e0: 2908 dabe 0ed0 08bf 8756 2abf ff1b 9d3c
000000f0: f0a4 24bf 3be5 a1bb 4f60 1dbe 0fe1 76bd
0.26412103 -0.6705605 -0.42673877 -0.511314 -0.12908971 -0.63735527 -0.652588 -0.15767397
-0.35096702 -0.70710284 -0.41603115 0.08884809 -0.3395219 -0.01888467 -0.34634715 0.2547752
-0.22786236 0.15050358 0.10978341 -0.07009682 -0.16413149 -0.030014038 -0.0147771835 0.040025413
-0.17318404 -0.11570123 -0.052471906 0.095437944 0.24982285 -0.08935672 0.21185696 -0.24103266
0.121253744 -0.18913879 -0.1679756 -0.20758581 0.21703084 0.016873818 -0.100952186 0.12688988
0.06734505 -0.158486 -0.08439567 0.09587403 -0.32397664 0.18688202 -0.15184444 -0.17925759
0.3180555 -0.8261005 -0.5971786 -0.25182217 0.0008631435 -0.46090317 -0.65045714 0.12502411
-0.4258435 -0.53442466 -0.6653828 0.019178389 -0.64314175 -0.0049406565 -0.1536877 -0.060273226

bilstm.bias_hh_l0 f4 [64]
00000000: 7f44 23bd be65 15bf d1d4 00bf f768 2dbe
00000010: dcb2 51be a0bd dfbe a4f0 0dbf 1df1 413e
00000020: 7b77 53bf 3f36 2abf 0eaf 28bf ea4e 2bbe
00000030: d3ae 97be cdfd 5f3e aa29 46be 697d 683e
00000040: 2ae3 6f3e 006a ae3a b0c5 a9bc 14de 60be
00000050: 3098 7a3d 0c12 f83d 9805 383e 54e6 6f3e
00000060: 58bc 50bd 0054 b2bd 9c3e 443e 5e53 59be
00000070: cc25 d63d 68a8 ac3d 66ac 6dbe e4b0 9b3d
00000080: 8ee3 e33d a13f d33b a0a6 e53d 8dcf 8fbc
00000090: f328 1dbe 00aa 17be f711 f4bd 9938 a63e
000000a0: c2e6 c8bd f232 7f3e b69b 27be 0e0b d83d
000000b0: 4a4b 2fbe 6a56 373e ce48 523c 15c2 54be
000000c0: 15aa 1e3e aa99 11bf 940c 14bf 5481 02bf
000000d0: f794 ebbd eccf 04bf 0e9a a0be 3799 66be
000000e0: 5c42 41bf 59f6 cbbe f94c 1dbf 7138 19be
000000f0: aa53 12bf 8892 a03e 6701 2ebe cac3 ad3e
-0.039860245 -0.5835837 -0.5032473 -0.16934572 -0.20478386 -0.4369936 -0.55445313 0.18939634
-0.8260419 -0.6648902 -0.6589211 -0.16729322 -0.29625568 0.21874161 -0.19351831 0.2270409
0.234265 0.0013306737 -0.020724148 -0.21959716 0.061180294 0.12112817 0.17970884 0.23427707
-0.05096087 -0.08707428 0.19164509 -0.21223208 0.10456428 0.084305584 -0.23210296 0.076020986
0.11127387 0.006446794 0.11213422 -0.017555023 -0.15347652 -0.14810944 -0.11917489 0.32465056
-0.098096386 0.24921778 -0.16367993 0.105489835 -0.17118564 0.17904058 0.012834741 -0.20777161
0.15494569 -0.568751 -0.5783169 -0.5097859 -0.11503022 -0.51879764 -0.31367534 -0.22519384
-0.7549188 -0.39836386 -0.61445576 -0.14962937 -0.5715891 0.31361794 -0.16992722 0.33938438

bilstm.weight_ih_l0_reverse f4 [64, 16]
00000000: 2a0e 56bf c849 eebe 54d5 d4be 2910 c5be
00000010: 1494 ecbe 1936 02bf 0423 19be d0b0 06bf
00000020: 5501 18be dd55 26be 1907 abbe 05b4 abbe
00000030: 4555 0dbf 4328 50bf 9de5 01bf 02af 1ebf
00000040: 3250 2e3e 7698 d83e 27d6 923e 4429 153e
00000050: 64df d53d 1f74 033e c3e6 ba3d 3b46 af3e
00000060: 06d1 a53e cec2 383e 1881 9a3e 1351 d83e
00000070: f6fe 033e a9b4 e53e 474f 1c3e 9412 b63e
00000080: 918d 4dbf 47fd 0dbf 6199 06bf cbc3 90bd
00000090: eae0 ccbe 2332 f1be e878 9bbe c870 48bd
000000a0: 11a1 c7be 9efe 0abf cc2a 26bf 2f25 02bf
000000b0: 6971 f5be 3fb0 eabe 92ac ddbe 43d6 58be
000000c0: be13 b1be 2b39 c8be 2a88 bcbd 3c85 dfbd
000000d0: 0f60 833c 475b 003f 25b4 1f3f 5f90 a83e
000000e0: 0763 9cbf 59fa dcbe 2509 e5be 13a9 2bbe
000000f0: dd45 4fbf f200 f8be 5ab0 4a3e b0bc 13bd
00000100: f629 0e3e 3c25 713e 3f1e 833e 081b 03bf
00000110: bb95 55bf 7d7a 66bf cee1 28bf 5e52 efbe
00000120: 0933 97bf 71af 97bf 4d52 633e 3683 0bbf
00000130: eece 85bf fd17 da3d 7bd1 28bf 15fa 05bf
00000140: dfaa 19bf 99c1 52bf 41e8 4dbf 15ef 86be
00000150: f900 d6be 09dc 19bf 4f8d f5be 4ab2 edbe
00000160: fb5d 34bf ab34 37bf 868f 33bf b96d d9be
00000170: ee6a d0be 188a 20bf 67fd 2abf a915 fabe
00000180: dc0a 84bd 828e 903e be24 1ebe b3aa 40bd
00000190: 2414 27bf 7bf6 81bf 75fa 94be 40c4 73be
000001a0: 6ef0 c1be 197e c9be 2d06 80bc eb2a 76be
000001b0: 9bb1 4dbf e404 4e3e 72c4 55be 74e1 30bf
000001c0: f50a 92be bf98 e7be 2f13 14bf 1f6c aabe
000001d0: 4c73 d2be aa18 e1be f999 86be fe65 a4be
000001e0: d07a 15be 7265 41bf 8b80 e8be 4d74 25be
000001f0: b5c7 77be 838d 19bf 8527 55be 97eb ffbe
00000200: b87f 17bf 2574 08bf c0f7 37bf e35d 06bf
00000210: 3ddd 0cbf 6ca9 11bf 638f 10bf c952 e4be
00000220: a3d4 28bf c518 59bf 744f 58bf 65c0 01bf
00000230: a339 5cbe ce27 5bbf ae4a 0cbf ec3e 96be
00000240: 0f00 aebe cdaf 00bf fa21 2bbf 774c 10be
00000250: 0265 0dbf 00fa 53bf a42f 3bbf a1b1 ecbe
00000260: a43d 0cbf 9ffb e4be c530 eabe 503c 98be
00000270: 1e30 a4be 2042 b4be 6636 34bf 8d89 c1be
00000280: 3cab 0cbf 74d3 29bf edb2 2dbf 3949 13bf
00000290: b368 88be 18ec 55be 4482 dabe a28a 98be
000002a0: dfec 03bf 837c 81be 4d1f fbbe a2f1 09bf
000002b0: 633b 37bf b48e fbbe df7a b0be 5207 bdbe
000002c0: 82bd 06bf 7a53 6ebe 5be5 78be 24cc 48bf
000002d0: fcce 73bf 30f3 56bf 6766 8ebf a270 52bf
000002e0: 8dab 8fbf b758 a8bf 10ed 2abe e93c 1dbf
000002f0: 919f 8abf 4bbc 99be 9e00 56bf 68eb 3dbf
00000300: 5dd8 4fbf 66a2 4dbf 9b45 34bf bb6c 91be
00000310: 2e60 b0be b1f4 2dbf fa1d 18bf cc6c 1fbe
00000320: 32fb a5be a830 16bf bf97 46bf ef06 cdbd
00000330: e1e0 49be c24d 1bbf a2df c2be 6d59 86be
00000340: d91e 10bf cd01 84be 2991 0fbf bcc0 03bf
00000350: 0232 b1be 0891 9ebe 5ca9 47be 73d6 bdbe
00000360: 3caa 4fbf 56bd abbe f0f5 32bf 2fa0 ffbe
00000370: b567 c0be 3bf0 a9be 7bc2 36bf 6c82 29bf
00000380: c4e3 afbe 7a13 8fbe 0475 d0be 9fdd 54be
00000390: 502b 203e 55e1 8abe 61de c9bd 24e1 4d3e
000003a0: c57a 98be 7f6f ddbc f520 bdbe aa36 6b3c
000003b0: 5e3b 30be 909d 193b 66df a0bc cab4 2abe
000003c0: 825e 2a3d 1546 013e 846e 843e 4fb9 70be
000003d0: 3b9f 2abf e703 7abf 31b4 bfbe 7e2c 01bf
000003e0: d0b9 83bf 8284 70bf fc44 4abe c9ac e7be
000003f0: 3179 27bf 7593 1a3e 5163 00bf 41bf c5be
-0.8361536 -0.46540666 -0.41569006 -0.38488892 -0.46206725 -0.50863796 -0.14954764 -0.52613544
-0.14844258 -0.16243692 -0.33403853 -0.33535782 -0.55208236 -0.81311435 -0.5074099 -0.6198579
0.1702278 0.42303818 0.2867901 0.14566523 0.10442999 0.12837265 0.091260456 0.3423327
0.32386035 0.18043062 0.30176616 0.42249355 0.12890229 0.44864395 0.15264617 0.3556105
-0.8029414 -0.55464596 -0.5257779 -0.070685945 -0.40015346 -0.47108564 -0.30365682 -0.04893568
-0.3899007 -0.54294765 -0.6490905 -0.5083799 -0.47938088 -0.4583759 -0.43295723 -0.21175484
-0.34585375 -0.39106116 -0.09205659 -0.10914084 0.016037015 0.5013928 0.62384254 0.32922646
-1.2217721 -0.4315975 -0.4473354 -0.16763715 -0.8096598 -0.4843822 0.19793835 -0.03606862
0.13883194 0.2354936 0.25609013 -0.5121312 -0.83431596 -0.9003065 -0.6596955 -0.4674253
-1.181245 -1.1850415 0.22199364 -0.54497087 -1.0453775 0.10649107 -0.6594464 -0.5233472
-0.60026354 -0.82326657 -0.80432516 -0.2635428 -0.41797617 -0.6010137 -0.47959372 -0.46425086
-0.704559 -0.7156474 -0.70140874 -0.42466524 -0.4070658 -0.62710714 -0.6679291 -0.4884465
-0.06447384 0.28233725 -0.15443704 -0.04703779 -0.6526511 -1.0153345 -0.29097334 -0.23805332
-0.37878746 -0.39354017 -0.015627945 -0.2403981 -0.8034913 0.20119053 -0.20875719 -0.69094014
-0.28523985 -0.45233724 -0.5784177 -0.33285615 -0.4110359 -0.4396413 -0.26289347 -0.32109064
-0.1459763 -0.7554542 -0.4541057 -0.16157646 -0.24197276 -0.59981555 -0.20815857 -0.49984428
-0.5917926 -0.5330222 -0.7186241 -0.5248701 -0.5502508 -0.5689914 -0.5646879 -0.4459441
-0.6594946 -0.8480342 -0.84496236 -0.50684196 -0.21506362 -0.8560761 -0.5480145 -0.2934488
-0.3398442 -0.5026825 -0.6684872 -0.14091669 -0.5523225 -0.82803345 -0.7311957 -0.4622927
-0.54781556 -0.44723222 -0.45740333 -0.29733515 -0.3206796 -0.352067 -0.70395505 -0.37800255
-0.5494878 -0.66338277 -0.67851144 -0.57533604 -0.2664238 -0.20890844 -0.4267751 -0.29793268
-0.5153331 -0.25290307 -0.49047318 -0.5388433 -0.7157499 -0.4913231 -0.34468743 -0.36919647
-0.52632916 -0.23274031 -0.24306242 -0.78436494 -0.9523771 -0.83964825 -1.1125001 -0.82203114
-1.1224228 -1.3152074 -0.16691995 -0.61421067 -1.0829946 -0.3002647 -0.8359469 -0.74187326
-0.8118952 -0.80325925 -0.7041871 -0.28403267 -0.3444838 -0.67951494 -0.5942074 -0.15568846
-0.3241821 -0.58667994 -0.77575296 -0.10011088 -0.1971469 -0.60665524 -0.38061243 -0.262401
-0.5629707 -0.25782624 -0.5608087 -0.51465964 -0.34608465 -0.30970025 -0.19498199 -0.37077674
-0.8111913 -0.3354289 -0.6990652 -0.49926898 -0.37579122 -0.33191094 -0.71390504 -0.66214633
-0.3435346 -0.27944547 -0.40714276 -0.20787667 0.15641522 -0.2712504 -0.098568685 0.20105416
-0.29781166 -0.027030705 -0.36939207 0.014356295 -0.17210147 0.0023439862 -0.019637775 -0.16670528
0.041594036 0.1262439 0.25865567 -0.2350819 -0.66649216 -0.97662205 -0.37442163 -0.50458515
-1.029108 -0.9395219 -0.19752878 -0.45249012 -0.654193 0.15095313 -0.50151545 -0.38622478

bilstm.weight_hh_l0_reverse f4 [64, 16]
00000000: f85e 35be 40d8 01bc f433 a23d 08c1 4d3d
00000010: 78a0 a4bd 6a34 553e 5033 6c3d 90bc dfbc
00000020: 68a0 673e bcf9 58be 102b d9bd 449c 973d
00000030: 7016 003e 5cd7 76be a27a 783e b875 69be
00000040: 749b 503e 8ab2 713e 2091 b6bd 8e6f 33be
00000050: 5a91 68be d204 24be 1084 67bd 04a1 eebd
00000060: 4e9a 0f3e 8a44 773e c0c5 ee3b 5072 cdbc
00000070: 1245 503e 2806 763d 949a 6c3e 343b e3bd
00000080: 3c3a 293e c022 b1bd 408b 5a3c 12eb 6f3e
00000090: 6868 5dbe 1c8a d73d f227 29be 9adf 62be
000000a0: 08a0 7bbe 3415 993d bc84 8dbd 90dc 59bd
000000b0: ea1f 763e 026e 30be 9407 3bbe 7e12 183e
000000c0: 3090 e13d a4b1 e7bd 100c 71bd ac06 e33d
000000d0: 4e8f 6f3e 6aab 353e c09c f13b 3045 4b3d
000000e0: 98ee 56be f033 313d 8eae 7bbe f83d 453e
000000f0: 6257 62be c8ff a83d 3092 fdbd 82f2 1a3e
00000100: fcac cd3d 4c2f 7dbe 82f9 41be e2d5 413e
00000110: 8684 66be 420c 513e 7838 4e3e 2a22 023e
00000120: e0bd 1abd 2608 71be 8669 283e 9c8d 723e
00000130: 3cf6 a1bd 906a b93d 60e0 e6bc 6027 6abc
00000140: 88e8 ffbd 8016 cb3d 56aa 1fbe 00cc db3c
00000150: da19 63be c064 54be 963f 0f3e 5cba 0cbe
00000160: 8257 2cbe 08af 193d b0ce 223e fc4a 173e
00000170: d0c5 5abd 7cfc 133e 804a 963c 9ce6 ba3d
00000180: fc18 463e 0040 5d3d c008 1dbe c4a3 7cbe
00000190: e86f dabd 905a 81bd 1eff 35be ba6a 5f3e
000001a0: c091 82bc be86 5f3e 18c0 54bd 0000 baba
000001b0: c0b2 39be 6830 f43d 507e cdbc c468 173e
000001c0: 3845 193d 10fc 1f3e dcd2 31be 00b2 1f3e
000001d0: 6629 2f3e 463e 1cbe e073 323c 7ec3 46be
000001e0: bc37 d13d 90a6 11be e02f 6abd f0cb 04be
000001f0: 1cf0 bb3d b4dc ab3d f4d4 f3bd d02b 7bbe
00000200: a441 d2bd 8ef6 183e e438 a33d f8eb 4bbe
00000210: 7650 1abe 80a9 d83c 44ff c7bd f03b 5b3d
00000220: 6025 0fbd b029 e83c 0c4a 543e 8081 67be
00000230: 84e2 d23d 607d bfbd 10ab 393e f2f4 13be
00000240: 60df 6fbe bceb 4e3e c82b 49bd 28df 343e
00000250: c2f7 70be b094 b6bd 0683 34be 005d b53d
00000260: 9ac8 673e 582c 503e bcc2 fabd c881 d1bd
00000270: 62cb 05be 201f 4cbe 800c 573b 14e9 b73d
00000280: 284d 79bd c683 35be 7486 cdbd 6616 5ebe
00000290: 0882 673d 4a35 4b3e ac53 2e3e 9298 3abe
000002a0: e8d1 1f3d e0fc 0d3e 60e4 453c 06b4 6cbe
000002b0: 6083 eb3c 8e34 7b3e 6063 e1bd 8c11 2fbe
000002c0: 5af7 2e3e 8033 c5bd 566d 7dbe 80c9 febd
000002d0: 6086 0bbe 1cdd 2a3e d817 e63d 8c0d 6d3e
000002e0: 4865 08be 8414 333e 001c f6bc 6aa4 70be
000002f0: 10c6 efbd 20ef 6ebe 28eb 81bd 90cb d9bc
00000300: dac3 153e 38b5 35bd b4c5 f3bd 0000 58bd
00000310: d0e2 a6bc e0ab f8bc 58a8 4f3d 4c42 9f3d
00000320: a248 1b3e 5034 ed3c 60e4 363d 24d2 c3bd
00000330: d6a7 743e 7818 96bd 5886 0e3e e01f e33d
00000340: 28dd 353e 7ceb c1bd 4296 553e a091 c33c
00000350: 1862 7bbe a2a7 673e d822 22bd c0d7 8abd
00000360: 607e 30bd 1070 bdbc e8f5 7c3e 6c91 b23d
00000370: 6062 df3d 241f c5bd 0060 19be bc7c 0abe
00000380: 0067 b8bb 3846 d73d 6013 39be 1ef6 31be
00000390: cc20 dabd 8000 dabc a867 5fbe 3c1a 5cbe
000003a0: 32b4 36be e441 4c3e c0d4 fcbc 7205 59be
000003b0: 2422 d73d e05d d03c c6dd 71be 609b 563e
000003c0: 18ec 12be 565b 213e 50db 7c3d ce9c 3fbe
000003d0: 9287 36be 8288 473e 967b 0abe f06c 81bd
000003e0: 2473 493e c804 13be 4eeb 69be a023 fcbc
000003f0: 2c3a 8ebd f483 ac3d 1856 523d 2483 43be
-0.17712009 -0.007925093 0.079200655 0.050232917 -0.080384195 0.20820776 0.057666123 -0.027311593
0.22619784 -0.21189016 -0.10603917 0.07402852 0.12508559 -0.2410559 0.2426553 -0.22798812
0.203718 0.23603263 -0.08914399 -0.17523023 -0.22711697 -0.16017464 -0.05652243 -0.11651805
0.14023706 0.2414724 0.007286757 -0.025078923 0.20338848 0.060064465 0.23105842 -0.110952765
0.16526121 -0.08649206 0.013338864 0.23429516 -0.21621859 0.10524389 -0.16519144 -0.2215561
-0.24572766 0.07474747 -0.06910083 -0.05318886 0.24035612 -0.17229465 -0.1826461 0.14850804
0.1101383 -0.11313179 -0.058849394 0.11085257 0.2339451 0.1774117 0.0073734224 0.04962653
-0.20989454 0.043262422 -0.24578306 0.1926192 -0.22103646 0.082519114 -0.12381399 0.15131572
0.1004276 -0.24725074 -0.18942836 0.18929246 -0.22511491 0.20414832 0.20138729 0.12708345
-0.037778735 -0.23538265 0.16446504 0.23686832 -0.079082936 0.09053528 -0.028183162 -0.014291614
-0.12495524 0.09916401 -0.15592322 0.026830673 -0.2217783 -0.20741558 0.139891 -0.13742965
-0.16830257 0.03752044 0.15899158 0.14774698 -0.053411305 0.14451784 0.018346071 0.091260165
0.19345468 0.054016113 -0.15335369 -0.24671847 -0.10665876 -0.063161016 -0.177731 0.21818057
-0.01593864 0.21828744 -0.051941007 -0.0014190674 -0.18134594 0.11923295 -0.025084645 0.14786059
0.037419528 0.15623498 -0.17365593 0.15595245 0.17105636 -0.1525813 0.010891885 -0.19410512
0.102157086 -0.14223695 -0.057174563 -0.12968421 0.091766566 0.08391705 -0.11905852 -0.24528432
-0.10266426 0.14937803 0.079698354 -0.19914234 -0.15069756 0.026448011 -0.09765485 0.053523958
-0.034947753 0.02834019 0.20731372 -0.22607994 0.10297111 -0.09350085 0.18131661 -0.14448908
-0.23425055 0.20207113 -0.04911402 0.17663252 -0.23532012 -0.08915079 -0.17628106 0.08855629
0.22635117 0.20329416 -0.12244174 -0.10229832 -0.13065866 -0.19933748 0.0032813847 0.08980003
-0.060864598 -0.17726049 -0.100354105 -0.21688232 0.05652049 0.19844547 0.17024106 -0.18222263
0.03901854 0.13865995 0.012078375 -0.23115548 0.028749168 0.24531767 -0.110052824 -0.17096537
0.17086545 -0.096289635 -0.2474874 -0.12440777 -0.13625479 0.16685909 0.112350166 0.23149699
-0.13319886 0.17488295 -0.030042648 -0.23500219 -0.11707699 -0.23333406 -0.063436806 -0.026586324
0.14625493 -0.044362277 -0.11902943 -0.052734375 -0.020371825 -0.030355394 0.050697654 0.07776317
0.15164426 0.028955609 0.04465139 -0.095615655 0.2389215 -0.07328886 0.13918436 0.11090064
0.17760146 -0.09468743 0.208581 0.02387315 -0.24549139 0.2262254 -0.03958401 -0.06779432
-0.04308927 -0.023124725 0.24703181 0.08719143 0.109074354 -0.0962508 -0.14978027 -0.13524145
-0.005627513 0.1051144 -0.18073797 -0.17379043 -0.10650787 -0.026611567 -0.21816885 -0.21494383
-0.17842177 0.1994701 -0.030863166 -0.21193483 0.10504559 0.025435388 -0.23619756 0.20957708
-0.14347875 0.15757498 0.06173259 -0.1871216 -0.17825153 0.19485667 -0.13523707 -0.06319606
0.19672829 -0.14357293 -0.22843668 -0.030778706 -0.06944689 0.084236056 0.051351637 -0.19092995

bilstm.bias_ih_l0_reverse f4 [64]
00000000: 9f32 3abf 27b2 b33e 3989 2dbf 8411 88be
00000010: 2a9e 55be 3a7c c3be ef57 ec3c 4545 b4be
00000020: 043d 03bf 5c0f f6be 929b 4cbf 0033 93be
00000030: b42c e3be 8e57 93be e04a 4abe 6c1b 0f3e
00000040: f01e 593e 8031 9f3b 98d5 85bd c061 2abe
00000050: d062 a93c f8a6 a53d d02c 0bbd 40ff 89bb
00000060: bcaf 41be 784f 903d 80ff 53bc 3086 2cbe
00000070: 18f3 d0bd b0a2 cc3c 8050 563d 8056 ddbc
00000080: 12cd d9bd 9984 06be 3e13 283c 0484 f0bc
00000090: dc9e 673d 46cc 39be 423f 163e fe0a 9bbc
000000a0: 66f8 6e3c 80a4 d73d c99f 253e 3e48 3cbe
000000b0: a5f5 ff3c aed7 1a3e db8f 2d3e d67d 52be
000000c0: 0ff3 04bf 4047 29bd 22e0 1dbf 4d90 ccbe
000000d0: a15a 27be 2413 cfbe 3b98 e73d cea1 2ebf
000000e0: c5a4 40bf e3ac f3be 5920 0fbf efe6 e3be
000000f0: 3f72 37bf b17c 16bf d80c 0dbe 6970 b0bd
-0.7273349 0.35096857 -0.6778751 -0.26575863 -0.20861116 -0.38180715 0.028850524 -0.35209098
-0.5126498 -0.48058593 -0.7992488 -0.28749847 -0.44370043 -0.28777736 -0.19755125 0.13975304
0.21203208 0.004858196 -0.065348804 -0.16638851 0.020677 0.080884874 -0.033978283 -0.0042113364
-0.18914694 0.070464075 -0.012939334 -0.16848063 -0.102026165 0.02497992 0.052322865 -0.027018785
-0.10634817 -0.1313652 0.010258494 -0.029359825 0.056547984 -0.1814433 0.14672568 -0.01892614
0.01458559 0.10529423 0.16174234 -0.18386933 0.031245062 0.15121338 0.16949408 -0.20555815
-0.5193338 -0.041327715 -0.61670125 -0.39953843 -0.16343166 -0.4044429 0.113083325 -0.68215644
-0.7525142 -0.4759284 -0.55908734 -0.44512126 -0.716587 -0.58784014 -0.13774431 -0.086151905

bilstm.bias_hh_l0_reverse f4 [64]
00000000: 5659 bebe 2d51 e43e f63a b2be ac1b 12be
00000010: 4e6d 19be 6fde 17bf 56a2 bfbd 6133 9dbe
00000020: 4632 2fbf 7f79 16bf fcc9 01bf ae3c cbbe
00000030: 4290 febe ba7d 1bbf 0160 e6be 21db 9cbe
00000040: b6ce 053e 2297 3dbe f07a 073e 6c3e 1c3e
00000050: 9417 57be e0c4 cf3d 8e3e 6fbe cce6 e23d
00000060: e012 b1bd 7c29 91bd e0ff 6ebd 0e9c 46be
00000070: a826 6ebe f0e3 afbc 68c2 783e c4df b63d
00000080: 8c0d c33d 967f 3a3e 07b7 883e d0c4 bb38
00000090: d399 8cbd a2ef 00be d2d5 2d3e ced6 62be
000000a0: c834 abbd e4dd 2ebe 0764 27bd 3bdd 953d
000000b0: d545 393e ed3f c9bd 22f4 293d cc8c 443e
000000c0: 46ee dabe 9598 a63d 057d 2dbf f755 a0be
000000d0: df5e 8ebd ff4d 13bf 9dec 90be f88d 00bf
000000e0: 5b81 70bf 146c 71be eb09 44bf 350b 9cbe
000000f0: 5b8c 4ebf 6faf 08bf 0ae7 d9be bd47 3bbe
-0.37177533 0.44593182 -0.3481061 -0.14268368 -0.14983103 -0.5932378 -0.09357135 -0.30703261
-0.68436086 -0.5877914 -0.5069883 -0.39694732 -0.49719435 -0.6073872 -0.4499512 -0.30635932
0.13067135 -0.18514684 0.1323049 0.15258187 -0.21005088 0.10144973 -0.23363706 0.11079177
-0.08646178 -0.07087991 -0.05834949 -0.19395468 -0.23256934 -0.021470994 0.2429291 0.08929399
0.09524068 0.18212733 0.2670214 8.953514e-05 -0.06865277 -0.12591413 0.16976097 -0.22152254
-0.083596766 -0.17076832 -0.040866878 0.07317587 0.18093045 -0.09826646 0.04149259 0.19194335
-0.42759913 0.081345715 -0.6776889 -0.31315586 -0.06951689 -0.5754089 -0.28305522 -0.5021663
-0.9394738 -0.23576385 -0.76577634 -0.304773 -0.80682915 -0.5339269 -0.4255908 -0.18289085

attention.in_proj_weight f4 [96, 32]
00000000: 16af f93d c01b e33d 81e2 e6bd 447f 233e
00000010: e5ed c43d e25b ecbd 9337 e93b 76ad b83d
00000020: 275c b33d 15bf 15be 40e6 debc bd1f e53d
00000030: fc06 99bc 7e3b 5bbe 032e 513e 4bf6 e23d
00000040: 7e32 f7bd 0c46 26be 9aca 953d 6e42 5dbe
00000050: b22f 103e 526c 0dbe c922 3b3e 1703 2c3d
00000060: 8ccc 02bc 3def 4abe c401 4b3e 153e 89bd
00000070: 9b2b 603d 7dd8 0bbd 290e 16be ff5b 34be
00000080: ac18 2cbe 43e5 c93a d82c 33be 1056 c83d
00000090: bdd9 2b3e 0f51 77bc a40d 0b3e bc8e 3b3e
000000a0: 2983 b23d 4e5c bebd 1818 27be fa8f 15be
000000b0: c527 5b3e b42b e33d 7e83 0a3e b4fd d43d
000000c0: 7f7b 193e f517 6abd 530c 633d 6ba8 d53d
000000d0: 8f56 cc3d 1e27 0b3e 4b82 203e bd83 22be
000000e0: 8043 05be e786 003d e989 4dbe 87eb 443d
000000f0: 0ad6 02be ea1c ba3d 8acd 52be 5aa1 e43d
00000100: a6c9 bd3c 6a8d 06be 8879 2e3d 37e4 823d
00000110: 58b6 12be 2cec a43d 3ac8 28be ceae a13d
00000120: ba09 32bc 5cb7 15bd dee7 a43d c001 3fbe
00000130: 93b2 4b3e 2aa4 093e 6814 7e3d 4421 1abe
00000140: cc51 1e3d 2c86 08be 281a 223e ac1a 25be
00000150: 6676 3a3d 0601 f8bd e02f d73a e06f bf3d
00000160: f477 dbbd 5ae5 e23c dc6d 3fbd 5ff9 d63d
00000170: 83cf 8d3d b011 03be ffd0 1abe 96b1 b2bd
00000180: 015d f13d 174b 173e 79a9 55be 1792 37be
00000190: 324c 11be 78bd 84bd 57c6 073e 1a49 42be
000001a0: 339b 58bd 8a78 7b3d 7971 8e3d 101c 363e
000001b0: 0afc 24be a7ad aebd a851 7a3c c025 0f3e
000001c0: b901 243e 1679 30be 81fd 19bd a1c8 bf3d
000001d0: 4734 ffbd f1eb 97bd 9c48 4b3e c7e8 353e
000001e0: 766d c33d a0ff 69bd eee1 6dbc a050 023d
000001f0: 73d1 4bbe e230 1a3e 8536 87bd 123b e53c
00000200: 83d9 36be 8409 29be ca8f dabd b551 f73c
00000210: 904e 32be a4d5 da3d b907 36be 5467 4a3e
00000220: d230 783a 872a 05be 560c 523e 3bda 38be
00000230: 7f14 93bd b611 81bd 7e4a 523d 7c05 a43d
00000240: 6957 f83c 8fde 55bd 6f96 19be f848 8dbd
00000250: 8f6a 18be 0e5d d1bd 4ccc 0abe e188 c13d
00000260: d31b 283e 4f72 723a d215 0cbe 0903 8fbd
00000270: 995e 313e 435e c0bd 7be3 4bbe 2fcb 303e
00000280: fe39 db3d eaf4 433e 6c99 a63d f761 aabd
00000290: cd8e 453d 4de8 e7bd 23f5 fbbc 8aa4 e3bd
000002a0: 61d1 3ebe 6f8a 77bd d45c e9bd 2f3e ffbd
000002b0: 1750 b73d 6d10 113e 3315 0bbd 83e7 8e3c
000002c0: 9202 cabd ad8d 8c3d 21cb 41bb f3a4 153e
000002d0: 4707 fdbd d406 103e 5e17 30be 06c0 1bbe
000002e0: d03b 2dbe 7c29 323e 258b 2b3d 25fe fa3d
000002f0: 5f8f 3b3d cbb1 76bd c851 9bbd b1a5 18be
00000300: fd74 1abc 9258 b4bd 87d5 47bc 9de0 e2bd
00000310: eadf 5c3e a589 303d c79d ad3c 0f74 a33d
00000320: 6f18 373e 25a8 193e a4cb b1bd 9d68 9e3c
00000330: 691b 14be 2b82 d33d f15e c33d 1b3f 453e
00000340: 19f7 25be 6eb0 b63d acd7 9abd 03bf 4b3e
00000350: cd59 1fbe af90 053e 996e 483e ffb1 cabd
00000360: b474 8d3d cde3 98bb a1da 57be daf1 3cbe
00000370: 33b2 2b3e f16b 453c 7951 f33c 8f84 19bc
00000380: 53fc 28be 9e2d 3fbe 4106 2dbe 476f bc3d
00000390: 87fc 1d3e b18f 0d3e ad3f 31be b760 093e
000003a0: 2d5a 823d 91d5 1d3e a113 493d 68ab 2abe
000003b0: 213b 023e 3a1a 74bb b8e0 1bbb 9aa0 90bd
000003c0: 0570 5d3d 98da 4dbe d6ab babd c2cb d73a
000003d0: fd2a 46be 9fa7 06be 87fd cc3d 2d30 063e
000003e0: 8757 1f3c 8cad 35be 8526 25bd 19ff 6ebd
000003f0: a62c 413e f951 6bbd 3968 b8bd 19fe 2ebe
0.12191598 0.11089277 -0.11273671 0.15966517 0.09615687 -0.11540963 0.0071172207 0.0901746
0.08757811 -0.14623673 -0.027209401 0.11187694 -0.018680088 -0.21409413 0.20427708 0.11082133
-0.120701775 -0.16237658 0.07314034 -0.21607372 0.14080694 -0.13810852 0.18274988 0.041995134
-0.007983338 -0.19817825 0.19824892 -0.06701294 0.054729085 -0.034142006 -0.14653839 -0.17613219
-0.16806287 0.0015403408 -0.17497575 0.0978204 0.1678228 -0.0150950095 0.13579422 0.18316168
0.08716423 -0.092949495 -0.16317785 -0.14605704 0.2140189 0.1109232 0.13526723 0.103999525
0.14988516 -0.057151753 0.055431675 0.10432514 0.09977447 0.13589141 0.15674703 -0.15870567
-0.1301403 0.031378653 -0.2007214 0.04807618 -0.12776962 0.09087546 -0.2058622 0.11163588
0.023167443 -0.13139883 0.04259637 0.06391185 -0.14327371 0.08052859 -0.1648263 0.078946695
-0.010866577 -0.03655182 0.08052038 -0.18653011 0.1989234 0.1344153 0.06203118 -0.15051752
0.038652226 -0.13332433 0.1583029 -0.16123456 0.04552307 -0.1210957 0.0016417466 0.0934751
-0.107162386 0.027697254 -0.04673563 0.104967825 0.06924345 -0.12799716 -0.15118788 -0.08725278
0.11785317 0.14774738 -0.2086543 -0.17926823 -0.14189222 -0.06481451 0.13259254 -0.18973199
-0.052882385 0.061394252 0.06955237 0.17784142 -0.1611177 -0.08529215 0.015278257 0.13979244
0.16016282 -0.1723369 -0.037595276 0.09364439 -0.12461143 -0.07418049 0.19851917 0.17764579
0.095423624 -0.05712855 -0.014519198 0.03181517 -0.19904117 0.1505771 -0.06602196 0.027982268
-0.17856412 -0.16507536 -0.10671957 0.030190328 -0.17412782 0.1068528 -0.17776383 0.19765979
0.0009467724 -0.13004504 0.20512518 -0.18051998 -0.07181644 -0.06302206 0.051340573 0.080088586
0.030315118 -0.0522142 -0.14998792 -0.06898683 -0.14884399 -0.10222827 -0.13554496 0.09449936
0.16416864 0.00092486007 -0.13680199 -0.06983001 0.17321242 -0.09392979 -0.19910996 0.17265008
0.107044205 0.19136396 0.08134732 -0.083194666 0.04823189 -0.11323605 -0.030756539 -0.11115368
-0.18634559 -0.060434755 -0.11394659 -0.124630325 0.08950823 0.14166422 -0.033955764 0.017444378
-0.098637715 0.0686296 -0.0029570537 0.14613704 -0.12354904 0.14065105 -0.17196414 -0.1520997
-0.16917348 0.17398638 0.041880745 0.122555055 0.045791026 -0.06022815 -0.07583958 -0.14906956
-0.009427306 -0.08805956 -0.012196905 -0.11077998 0.21569791 0.043100018 0.021193398 0.07981121
0.17880414 0.15005548 -0.086814195 0.019336993 -0.14463581 0.10327562 0.09539593 0.19262354
-0.16207542 0.0892037 -0.075606674 0.19897084 -0.155616 0.13043474 0.1957344 -0.09897231
0.06907025 -0.004665828 -0.21079494 -0.18451634 0.16767196 0.012049661 0.029701935 -0.009369983
-0.16502504 -0.18669745 -0.16896917 0.09200912 0.15428363 0.13824345 -0.17309447 0.134158
0.06364856 0.154135 0.049090985 -0.16666949 0.12717868 -0.0037247078 -0.0023785066 -0.07061882
0.05406191 -0.20102918 -0.09114806 0.0016463923 -0.19352336 -0.1314988 0.10009294 0.13104315
0.009725458 -0.17741984 -0.04031994 -0.05834875 0.18864688 -0.057451222 -0.09004254 -0.17089118

attention.in_proj_bias f4 [96]
00000000: 0000 0000 0000 0000 0000 0000 0000 0000
00000010: 0000 0000 0000 0000 0000 0000 0000 0000
00000020: 0000 0000 0000 0000 0000 0000 0000 0000
00000030: 0000 0000 0000 0000 0000 0000 0000 0000
00000040: 0000 0000 0000 0000 0000 0000 0000 0000
00000050: 0000 0000 0000 0000 0000 0000 0000 0000
00000060: 0000 0000 0000 0000 0000 0000 0000 0000
00000070: 0000 0000 0000 0000 0000 0000 0000 0000
00000080: 0000 0000 0000 0000 0000 0000 0000 0000
00000090: 0000 0000 0000 0000 0000 0000 0000 0000
000000a0: 0000 0000 0000 0000 0000 0000 0000 0000
000000b0: 0000 0000 0000 0000 0000 0000 0000 0000
000000c0: 0000 0000 0000 0000 0000 0000 0000 0000
000000d0: 0000 0000 0000 0000 0000 0000 0000 0000
000000e0: 0000 0000 0000 0000 0000 0000 0000 0000
000000f0: 0000 0000 0000 0000 0000 0000 0000 0000
00000100: 6063 663d f57f 3bbd 7d84 d33c 54ac 8bbc
00000110: 5c32 26bd d0eb 11bd a50f e6bc e7ee 853c
00000120: 8f91 02bd 079f 53bd c424 11bc dd9e 1cbd
00000130: 0e3c 8dbd ef7c 643d f00d 303d fa17 a4bb
00000140: 4038 53bc 231a 143d 20c1 343d 4bb2 233d
00000150: e60a 1cbd bf23 3b3d 40d8 a1bc 19e6 86bc
00000160: 1313 063d 7571 e33c 038b 3f3d 1ef4 523d
00000170: 190d 25bd ce14 dc3c 8ff8 113a 96bc ed3a
0.0 0.0 0.0 0.0 0.0 0.0 0.0 0.0
0.0 0.0 0.0 0.0 0.0 0.0 0.0 0.0
0.0 0.0 0.0 0.0 0.0 0.0 0.0 0.0
0.0 0.0 0.0 0.0 0.0 0.0 0.0 0.0
0.0 0.0 0.0 0.0 0.0 0.0 0.0 0.0
0.0 0.0 0.0 0.0 0.0 0.0 0.0 0.0
0.0 0.0 0.0 0.0 0.0 0.0 0.0 0.0
0.0 0.0 0.0 0.0 0.0 0.0 0.0 0.0
0.056247115 -0.045776326 0.025820011 -0.017049946 -0.04057537 -0.03562528 -0.028083632 0.01634927
-0.031877097 -0.051665332 -0.008858863 -0.03823744 -0.0689622 0.05578321 0.04298204 -0.005007741
-0.012891829 0.03615774 0.04412949 0.039964955 -0.03809633 0.045688387 -0.019756436 -0.016467141
0.032733034 0.027764061 0.04676343 0.05150234 -0.040295694 0.02686539 0.0005568349 0.0018137868

attention.out_proj.weight f4 [32, 32]
00000000: 378d bbbc a98c 483e 7f94 ddbd f07a 3d3c
00000010: 17aa f6ba 29f1 4b3c 708d 1b3d ec63 103d
00000020: 7753 21be 9d7c afbd 9e2d 893b 315e 2c3c
00000030: cb98 00bd fdac 9a3d 2bf4 3bbd 50d7 af3d
00000040: a3d8 82bb 2236 8b3d 59c8 acbd 5a82 2bbc
00000050: 7817 423d c624 6ebd 5545 a4bd 1129 31bc
00000060: 4e1e 1c3e 8575 17be 4628 233d 23a2 60bd
00000070: 31b5 26bd 36ee c5bc 8d65 513c 282e 823c
00000080: 2f83 d83d f11e 8dbe 0161 a03e be92 f33c
00000090: 3d80 073e 53a5 d33d 8622 9cbe e4bf 37bd
000000a0: fbd7 dbbd f456 9abd 618c 7cbd 2e83 1bbe
000000b0: d989 f9bc 0e1a 363d 5fe1 563d c66f f7bd
000000c0: 7eeb 613d cee1 123d 933c 043d 10c9 d73d
000000d0: 9e9a 503d 9321 ae3e e6c4 cabe c1a8 0a3d
000000e0: 870e bd3e 8fa3 693e 86a5 38bd c49a ee3d
000000f0: 0f40 92bd 16bb 44bd eec1 b6bd 21ee f03c
00000100: 803e f73b af17 d03c 362c 92bd 4212 0a3d
00000110: 3833 06bd a910 b43c 4f49 a73c 80aa 95bd
00000120: 662c 933d 985d 89bd 4d7b 603d cdb5 17bc
00000130: 3007 f03b 60f1 0ebd c987 133d ac72 9a3c
00000140: d9fb a3bc ce2f 9ebc bef4 353d bc52 7cbd
00000150: 0115 933d df64 ca3d 9d72 2ebd 8678 b9bd
00000160: 683a 903d a43b fabd 4376 bdbd ce11 dfbc
00000170: 321b 9b3c fe53 883c 9df9 4b3b a4b4 bbbd
00000180: 6645 13bd a22a 203e e57b e53d d468 6c3d
00000190: 4f96 acbc 918b b83d 832a f83d 6f53 bf3c
000001a0: 7210 b23d 79f0 44bd d998 dd3c 21c0 6c3e
000001b0: 5f42 273e 3d65 f2bd bdbf e2bc d9f8 8bbd
000001c0: 22aa 44bb 3420 da3d ae71 463d 3242 9a3c
000001d0: 7d32 e3bc 84ab 243d f5ad 2ebe 22cd 173d
000001e0: 3304 2f3d 4071 f03d 8a1e 3f3e fe8c 06bd
000001f0: 3c37 da3d 82fc d7bd 4c74 dcbc b693 19bd
00000200: 76d3 373d a10b af3d 6639 993d 951c 9e3d
00000210: 8f28 02bd 44c1 1d3d 1daa b3bc f271 16be
00000220: 545b 233e cf06 a33d b749 b73d 8da7 0ebe
00000230: 0aaa e43d 932e 7cbd 5a46 c2bd 10d0 9ebd
00000240: a611 4b3d db4f 03bd 1d06 fc3d 6b33 e4bd
00000250: a112 033d 2e74 17be b0e1 543c 5d06 583e
00000260: ef7c 063e af93 75bd 2961 723e 48de e53c
00000270: ca6c 273e 2112 f83c aeda 893c 4c2e 213e
00000280: d47d d2bc 154b a9bd 82ee 75be 86ef 2cbd
00000290: 222b bfbd ff8a 883d 302e 55bd adc3 dd3c
000002a0: 3700 583e 52ae f53c 5141 df3d 04ef 4abd
000002b0: a3f1 f83d b79e 76bc 55da bebd dae2 a33d
000002c0: b30b 7d3d 6ba4 72be 9b63 92bd d2c6 fc3d
000002d0: fdce 02be 4244 cbbd 03f9 243d 6978 083e
000002e0: 8a45 7abe 098f a2bd 3004 62bd 2e08 083d
000002f0: debe ffbb 3e84 6abe aed0 2cbe 86dd 2d3e
00000300: fd01 7bbc 779d 913d 82c8 c8bd cd96 073d
00000310: d072 a13c 7423 b8bd 6e09 bbbd d31a 03be
00000320: 4921 92bd 5f2e 793c e3fe acbc 0028 c13d
00000330: 3736 6abd d946 963b c154 133d 851e df3c
00000340: 97b0 6abd 3d1d 9a3d e569 24bd b2af 96bc
00000350: 05da 493d 10c8 483a 487f a33d 43be 35bd
00000360: 29c2 023e 31f0 b23d 84e1 b5bc 7411 97bd
00000370: f4d7 973c 20ab d73d fab3 a6bd 7e35 8fbd
00000380: bbde fd3b 90dd b93d 4006 353d af17 9fbd
00000390: b424 34bd 4ee7 06be 9772 89bc 2dfd c13d
000003a0: 73e0 983d ede9 f9bc 9932 b93c 34cd 903c
000003b0: 0674 d53c 505f 77bd 81d0 733c 89e1 38bd
000003c0: 968a 723d 6bd7 63bd 094b 56bc b736 ae3d
000003d0: 8b7a e83c 9450 2e3d 1418 9b3c be56 40bd
000003e0: 890d f7bc 2507 253e 79dc babd 66f1 35bb
000003f0: 2138 c3bc 8af2 34bd 9797 90bc 2318 d23c
-0.022894485 0.19584908 -0.10819339 0.011564955 -0.0018819001 0.012447634 0.037976682 0.035251543
-0.15754496 -0.0856869 0.004186346 0.010520504 -0.031395715 0.07552526 -0.045887154 0.085859895
-0.0039931103 0.067974344 -0.08436651 -0.01046809 0.047385663 -0.05814054 -0.080210365 -0.010813014
0.15245935 -0.14790924 0.03983333 -0.054842126 -0.04070014 -0.02416144 0.012780559 0.01589115
0.10571896 -0.2756267 0.31324008 0.029733058 0.13232513 0.103342675 -0.3049509 -0.044860736
-0.107345544 -0.07536116 -0.061657313 -0.1518676 -0.030461239 0.04445844 0.052461024 -0.12081866
0.055156223 0.035859875 0.03228433 0.105363965 0.050928704 0.3400999 -0.39603347 0.033852343
0.36925146 0.22816299 -0.04507973 0.11650613 -0.071411245 -0.04802998 -0.08923708 0.029410424
0.0075452924 0.025401918 -0.07137339 0.03370882 -0.03276369 0.0219806 0.020420698 -0.07307911
0.07186203 -0.06707305 0.05480509 -0.009259653 0.0073250756 -0.034898162 0.036018167 0.018853508
-0.020017551 -0.019309904 0.044422857 -0.06160234 0.071817406 0.09882521 -0.042589772 -0.09056191
0.0704239 -0.12218407 -0.09251072 -0.02723017 0.018933866 0.016641613 0.0031124123 -0.09165314
-0.035954855 0.15641263 0.11205272 0.05771716 -0.021067766 0.09010995 0.121174835 0.023355214
0.08694543 -0.048080895 0.027050423 0.23120166 0.16333912 -0.11835716 -0.027679319 -0.06834573
-0.0030008634 0.106506735 0.048448257 0.018830393 -0.027734036 0.040202633 -0.17058547 0.037060864
0.042728614 0.11740351 0.18663993 -0.032849304 0.10655066 -0.10546209 -0.026910923 -0.037494384
0.0448794 0.0854714 0.07481651 0.07720295 -0.03177696 0.03851439 -0.021931702 -0.14691904
0.15952808 0.07960283 0.08949607 -0.13931103 0.11165245 -0.061567854 -0.09486075 -0.077545285
0.049577378 -0.032058578 0.123058535 -0.1114262 0.032000188 -0.14790413 0.012993261 0.21096177
0.13133596 -0.059955295 0.23669876 0.028060094 0.16350093 0.030282082 0.016827907 0.15740317
-0.025694765 -0.08266274 -0.24016765 -0.042220615 -0.09334399 0.066671364 -0.052046 0.027070845
0.21093832 0.029990349 0.1090113 -0.04954435 0.121554635 -0.015052489 -0.09318987 0.08002253
0.061778735 -0.23695533 -0.071479045 0.123426095 -0.12774272 -0.099251285 0.04027654 0.13327183
-0.2444059 -0.07937438 -0.055179775 0.033210926 -0.0078047356 -0.22902009 -0.1687648 0.16979036
-0.015320298 0.07110112 -0.09803869 0.0331028 0.019708067 -0.08991137 -0.09132658 -0.12803201
-0.07135255 0.01520881 -0.021117633 0.094314575 -0.05718061 0.0045860824 0.0359695 0.027236233
-0.057297315 0.07525108 -0.04014005 -0.018394325 0.049280185 0.0007659206 0.07983261 -0.0443709
0.12769379 0.08737219 -0.02220226 -0.07376376 0.018535592 0.105306864 -0.081397966 -0.06992625
0.007747499 0.09075463 0.044195414 -0.07768189 -0.043980315 -0.13174173 -0.016778274 0.094721176
0.07464685 -0.030507052 0.022607135 0.017675973 0.0260563 -0.06039363 0.014881254 -0.045136962
0.059214197 -0.05562536 -0.013079413 0.0850653 0.028378746 0.042557314 0.01893238 -0.046957724
-0.030157821 0.16116007 -0.09124083 -0.0027762293 -0.023830475 -0.044176616 -0.017650409 0.025646275

attention.out_proj.bias f4 [32]
00000000: 0418 1c3a 2563 643e 711a febb a73b 0bbc
00000010: 0182 1bbc 3f81 26be 0ffc 143b 9150 fabb
00000020: 1a7a 2ebb 97d7 a5bb fa9f 70bc 326a 033b
00000030: 916e a53b 25dd 9b3b d6c8 263b c591 3c3e
00000040: f2f8 9b3b f6ba 38be 7e14 05bc a33f 8f3c
00000050: fa6e 51bb 6af5 f2ba 187e ff3a e22b b139
00000060: 877b f4bb cc6c 09b9 0a68 033c 91c0 eab9
00000070: 490f c13b 5593 6b3a 635d 2c3e d8bf 7cba
0.00059545063 0.22303446 -0.007754617 -0.008498109 -0.009491445 -0.16260241 0.0022733246 -0.007638999
-0.0026623071 -0.0050611007 -0.014686579 0.002005231 0.005048581 0.004756587 0.0025449297 0.18414982
0.004759901 -0.1804007 -0.0081225615 0.017486399 -0.0031957016 -0.0018536274 0.0019492535 0.00033792766
-0.0074610147 -0.00013105868 0.00802041 -0.0004477543 0.0058917147 0.0008986493 0.16832499 -0.0009641624

fc.weight f4 [1, 32]
00000000: 0ca5 283b 197f 833e a04d 85b9 de32 1e3b
00000010: 55ec 0539 c76d 0fbd 36c7 0ebb 04fa e938
00000020: 6edc b338 6b2f 973a 763b 3e3a b1fe b53a
00000030: f821 5c38 faf1 ecba 36f9 9a3a 53d6 203e
00000040: b9a2 8739 29ba 2fbe 98b7 83b7 b26b c838
00000050: 2c59 b33a ced3 16bb 7998 2ab9 dfd4 afb8
00000060: fcaa ecba 45e0 c7b8 fd70 88ba f482 1e37
00000070: 2981 753a 4806 46b9 d2e1 e33d 4bc1 94b8
0.0025733141 0.25682905 -0.00025425572 0.0024139206 0.00012771909 -0.0350168 -0.002178622 0.00011156875
8.576443e-05 0.0011534517 0.0007256785 0.0013885108 5.2483723e-05 -0.0018077486 0.0011823538 0.15706758
0.00025870444 -0.17160858 -1.570191e-05 9.556803e-05 0.0013683192 -0.002301443 -0.00016269264 -8.3843006e-05
-0.0018056328 -9.530833e-05 -0.001040965 9.448024e-06 0.00093652547 -0.00018885091 0.11127056 -7.0931936e-05
